…
    "              metrics=['accuracy'])"
   ]
  },
  {
   "cell_type": "markdown",
   "metadata": {},
   "source": [
    "## Model Summary"
   ]
  },
  {
   "cell_type": "code",
   "execution_count": 17,
   "metadata": {
    "scrolled": true
   },
   "outputs": [
    {
     "name": "stdout",
     "output_type": "stream",
     "text": [
      "Model: \"sequential\"\n",
      "_________________________________________________________________\n",
      " Layer (type)                Output Shape              Param #   \n",
      "=================================================================\n",
      " rescaling_1 (Rescaling)     (None, 180, 180, 3)       0         \n",
      "                                                                 \n",
      " conv2d (Conv2D)             (None, 180, 180, 16)      448       \n",
      "                                                                 \n",
      " max_pooling2d (MaxPooling2D  (None, 90, 90, 16)       0         \n",
      " )                                                               \n",
      "                                                                 \n",
      " conv2d_1 (Conv2D)           (None, 90, 90, 32)        4640      \n",
      "                                                                 \n",
      " max_pooling2d_1 (MaxPooling  (None, 45, 45, 32)       0         \n",
      " 2D)                                                             \n",
      "                                                                 \n",
      " conv2d_2 (Conv2D)           (None, 45, 45, 64)        18496     \n",
      "                                                                 \n",
      " max_pooling2d_2 (MaxPooling  (None, 22, 22, 64)       0         \n",
      " 2D)                                                             \n",
      "                                                                 \n",
      " flatten (Flatten)           (None, 30976)             0         \n",
      "                                                                 \n",
      " dense (Dense)               (None, 128)               3965056   \n",
      "                                                                 \n",
      " dense_1 (Dense)             (None, 7)                 903       \n",
      "                                                                 \n",
      "=================================================================\n",
      "Total params: 3,989,543\n",
      "Trainable params: 3,989,543\n",
      "Non-trainable params: 0\n",
      "_________________________________________________________________\n"
     ]
    }
   ],
   "source": [
    "model.summary()"
…
    "              loss=tf.keras.losses.SparseCategoricalCrossentropy(from_logits=True),\n",
    "              metrics=['accuracy'])"
   ]
  },
  {
   "cell_type": "code",
   "execution_count": 27,
   "metadata": {
    "scrolled": false
   },
   "outputs": [
    {
     "name": "stdout",
     "output_type": "stream",
     "text": [
      "Model: \"sequential_2\"\n",
      "_________________________________________________________________\n",
      " Layer (type)                Output Shape              Param #   \n",
      "=================================================================\n",
      " sequential_1 (Sequential)   (None, 180, 180, 3)       0         \n",
      "                                                                 \n",
      " rescaling_2 (Rescaling)     (None, 180, 180, 3)       0         \n",
      "                                                                 \n",
      " conv2d_4 (Conv2D)           (None, 180, 180, 16)      448       \n",
      "                                                                 \n",
      " max_pooling2d_4 (MaxPooling  (None, 90, 90, 16)       0         \n",
      " 2D)                                                             \n",
      "                                                                 \n",
      " conv2d_5 (Conv2D)           (None, 90, 90, 32)        4640      \n",
      "                                                                 \n",
      " max_pooling2d_5 (MaxPooling  (None, 45, 45, 32)       0         \n",
      " 2D)                                                             \n",
      "                                                                 \n",
      " conv2d_6 (Conv2D)           (None, 45, 45, 64)        18496     \n",
      "                                                                 \n",
      " max_pooling2d_6 (MaxPooling  (None, 22, 22, 64)       0         \n",
      " 2D)                                                             \n",
      "                                                                 \n",
      " dropout (Dropout)           (None, 22, 22, 64)        0         \n",
      "                                                                 \n",
      " flatten_1 (Flatten)         (None, 30976)             0         \n",
      "                                                                 \n",
      " dense_2 (Dense)             (None, 128)               3965056   \n",
      "                                                                 \n",
      " dense_3 (Dense)             (None, 7)                 903       \n",
      "                                                                 \n",
      "=================================================================\n",
      "Total params: 3,989,543\n",
      "Trainable params: 3,989,543\n",
      "Non-trainable params: 0\n",
      "_________________________________________________________________\n"
     ]
    }
   ],
   "source": [
    "model_1.summary()"
…
